…
>enumerate</span>(self.linears):</span><br><span class="line">            x = self.linears[i // <span class="number">2</span>](x) + l(x)</span><br><span class="line">        <span class="keyword">return</span> x</span><br><span class="line"></span><br><span class="line">test=MyModule()</span><br><span class="line"><span class="built_in">print</span>(test)</span><br></pre></td></tr></table></figure><br>上述代码的输出为：<br><figure class="highlight bash"><table><tr><td class="code"><pre><span class="line">MyModule(</span><br><span class="line">  (linears): ModuleList(</span><br><span class="line">    (0): Linear(in_features=10, out_features=10, bias=True)</span><br><span class="line">    (1): Linear(in_features=10, out_features=10, bias=True)</span><br><span class="line">    (2): Linear(in_features=10, out_features=10, bias=True)</span><br><span class="line">    (3): Linear(in_features=10, out_features=10, bias=True)</span><br><span class="line">    (4): Linear(in_features=10, out_features=10, bias=True)</span><br><span class="line">    (5): Linear(in_features=10, out_features=10, bias=True)</span><br><span class="line">    (6): Linear(in_features=10, out_features=10, bias=True)</span><br><span class="line">    (7): Linear(in_features=10, out_features=10, bias=True)</span><br><span class="line">    (8): Linear(in_features=10, out_features=10, bias=True)</span><br><span class="line">    (9): Linear(in_features=10, out_features=10, bias=True)</span><br><span class="line">  )</span><br><span class="line">)</span><br></pre></td></tr></table></figure></p>
<figure class="highlight py"><table><tr><td class="code"><pre><span class="line">input_size=<span class="number">10</span></span><br><span class="line">hidden_size=<span class="number">128</span></span><br><span class="line">nlayers = <span cla
…
